lhy-1/weight.npy (npy, 1432 bytes, 1 tensors)

array f8 [163, 1]
000000 c2 79 c4 e6 5f 59 35 40 76 c3 05 5f 4e ae d8 3f
       21.34911958977478 0.38563880233328207
000010 1c f9 45 3c 01 e6 d5 bf f8 ec 34 a5 f6 6d 7c 3f
       -0.3421633804899942 0.006940806825976191
000020 b2 fd c4 81 20 ac e9 bf c9 ab 49 68 08 53 b2 bf
       -0.8022615942535849 -0.07157948061073606
000030 f0 6b c2 6c fc e9 d2 3f 5c dd 1e af 5c 9e c6 bf
       0.2955313741783234 -0.17670782614525649
000040 cb 6e 91 23 a1 e4 e0 bf 2e 69 33 d7 29 c7 f1 3f
       -0.5279088682832137 1.1111238867075133
000050 1b cd 80 4f 0f 94 ce bf 10 5b ad 55 7b 5b a5 3f
       -0.23889342672337296 0.04171357556213284
000060 ca d8 6a cb 85 0d b9 3f e5 15 5c 72 02 b0 b6 3f
       0.09786258903736492 0.08862319271073422
000070 45 0f 5a cf f0 fd b3 bf 9b 85 28 2f 9c a3 92 bf
       -0.0780935770254106 -0.01820224798041679
000080 89 ab 84 69 e3 7f bc bf fd e8 98 a1 95 df c1 3f
       -0.11132642103318181 0.1396357573556272
000090 44 79 cc 84 4d fa e0 3f e0 8c c1 7d fd 60 b2 3f
       0.5305545419430833 0.0717924530049916
0000a0 d7 d8 cf 8c 24 d7 a2 bf ea b7 8f 76 6f 83 b2 3f
       -0.03679765910048765 0.07231804508748466
0000b0 e4 4d 6b 4d 03 9d c0 bf b5 75 5c e6 e1 2b c2 3f
       -0.1297916534445981 0.1419641852198034
0000c0 b5 5c 22 5d df 48 b1 bf 6f d9 f6 26 33 2d c3 bf
       -0.06751819633278695 -0.14981688883353736
0000d0 a0 d1 70 63 78 e6 bb 3f 43 a4 a5 74 97 fa da 3f
       0.10898544719458991 0.4215448989039638
0000e0 ee d5 53 7a fe 88 ca bf 02 b1 ae 46 4b 09 c5 3f
       -0.20730572674771913 0.1643461318138933
0000f0 a0 69 53 c4 89 df b2 bf 28 10 13 ed 5d 30 cd 3f
       -0.0737234215079412 0.2280385406103289
000100 67 ea 7c 2e a8 b2 c4 3f 9f 1a fe 90 28 08 d2 bf
       0.16170217771453396 -0.28174795302803973
000110 f9 f8 db 9a 0e 2d a1 3f 74 8a 54 bd f4 75 ba 3f
       0.03354688301441117 0.10336236593551879
000120 f3 c1 d4 43 80 0c c4 3f 90 ee e0 e3 b0 d8 b4 3f
       0.1566315013128726 0.08143144191211094
000130 a7 f7 be b0 b2 ab 95 3f 47 f6 6e 5f a7 8d d3 3f
       0.02116278842708366 0.30552086181328203
000140 bd 59 3c 2a 7a 5e b3 bf ff 0a 00 18 07 0d b1 bf
       -0.07566035777231313 -0.06660503707830044
000150 6c 0d 12 7b bc 5e c5 bf 85 6b c1 9f a0 1f ca 3f
       -0.16695362099936106 0.20409019280017673
000160 d8 9d e0 f9 3e 02 d0 3f 2d d9 c4 85 82 8f dc bf
       0.2501370849808757 -0.4462591463410657
000170 5b 0e ba 63 b4 91 c6 3f 64 1e fb 30 13 51 d4 bf
       0.17632155293914561 -0.31744842322630107
000180 e6 98 21 b8 51 4e c7 bf a8 e3 a8 31 67 b6 c9 bf
       -0.18207761278899354 -0.20087900090018462
000190 fe fe cd 14 ce 31 a4 bf 03 0a 1d c7 6f 8b af bf
       -0.039442482032425716 -0.061610692077483285
0001a0 b9 d9 a2 53 5b 27 d9 bf be cf 10 00 08 44 d7 bf
       -0.3930271450766685 -0.36352729803479267
0001b0 4a d7 ee e5 76 c9 f0 3f 7c 59 78 c6 28 ee b2 3f
       1.0491856557614079 0.07394652219259074
0001c0 e0 74 4b ba 4b ec d0 bf 46 a3 4d d6 b4 2a 78 bf
       -0.2644223517689408 -0.005900102992065842
0001d0 2c 16 e0 ae bd 2e b8 3f b3 e9 f0 28 5c 39 b1 3f
       0.09446321029107513 0.06728149413621658
0001e0 5a 98 97 86 94 a6 95 3f ec 54 3e c6 45 4d cb bf
       0.021143265452245742 -0.21329567127091964
0001f0 f5 09 cc 77 9e 4d a3 bf c6 24 cb e5 db 5a ee 3f
       -0.03770156109205295 0.9485911834864502
000200 8f bd ab dc 7b 7f b4 3f 69 1f 9a f0 57 a9 c0 3f
       0.08007024896118352 0.13016795395037242
000210 9e 94 7c cc ce 65 c9 bf 3e 3c 1b f3 9e 8c d1 bf
       -0.19841942772578575 -0.2742078184209652
000220 4c ed 8b 13 fd b3 b5 bf 68 68 aa 05 8d 1d e1 bf
       -0.08477765776836071 -0.5348572836549126
000230 33 16 7f 8b 92 c0 e3 bf 11 40 56 51 d4 7c ca bf
       -0.617257378057451 -0.20693448993233735
000240 e0 5b eb 58 fd af 00 40 6c c5 44 94 40 97 cd bf
       2.0859324404550392 -0.23117835273437082
000250 ff b0 68 7d 0c 2e d2 3f 16 e8 62 6f ad 7d ca 3f
       0.2840605950066361 0.2069603723410302
000260 8c 70 ba 69 fd d3 93 bf 7f e9 c7 3a d9 58 d5 bf
       -0.01936336477102478 -0.33354788532565033
000270 ae b5 2d c1 e2 1a d4 3f 57 cc 65 af e4 3f 9c bf
       0.3141409765729247 -0.027587483601973464
000280 0a b0 03 8f fe ae d4 bf 1a f9 36 00 e7 29 fb 3f
       -0.32318080869913557 1.697730065192053
000290 b8 a1 f0 01 9f 6d ac bf 08 37 45 cd 2b c8 d9 3f
       -0.05552384279900785 0.40284247442183174
0002a0 74 d6 85 15 bd 92 e3 3f e6 bc 0f a6 56 fa f0 bf
       0.611662427937246 -1.0611177908684168
0002b0 a2 73 d9 0c 40 eb eb 3f e5 d8 22 75 1c 5f 0a 40
       0.8724670649495361 3.296440997243837
0002c0 18 24 7b 2c e8 72 17 c0 2f a9 5d 95 a2 4a fc 3f
       -5.862213797584467 1.7682214579204574
0002d0 b0 cc 02 fb f4 e1 2a 40 71 ee 1f c1 ee 90 af 3f
       13.441322177974456 0.06165262324790611
0002e0 b8 a7 9e 8e cf 1d 8f 3f ef f7 cb ce 89 e8 bd bf
       0.015193578281316053 -0.11682950304745508
0002f0 06 4a aa 1f 37 ba 43 bf f5 3e ef fd 50 fb b5 bf
       -0.000602032581200896 -0.08586603355001528
000300 a2 ba 93 c2 d4 81 bf 3f 1e f3 3c 4e 72 ec 8d 3f
       0.12307481527725853 0.014611142170559751
000310 95 f0 8d f3 8f cc ae bf 2b 80 3b 3c ca aa c8 bf
       -0.06015443656994638 -0.19271209660564756
000320 3c 09 54 38 b5 79 66 3f e0 86 dd 4c 5d 9f d6 3f
       0.002743581719756664 0.3534768343580321
000330 fe 04 3e 40 a9 84 c9 bf fc cd 1c 3e b5 d2 dd bf
       -0.19936099659756928 -0.46598559442210763
000340 3d 3c 47 d5 57 17 d4 bf 18 cb e7 31 83 ed d7 3f
       -0.31392474964099276 0.3738716113431777
000350 51 72 58 04 36 48 ec bf e0 ae b8 46 94 f6 c4 3f
       -0.8838148198006569 0.16377500012583024
000360 62 84 10 1b 64 c5 e2 3f 98 a4 7b 82 24 30 e0 bf
       0.5865955856899172 -0.5058767841811855
000370 41 b6 d7 21 b2 6d e3 3f 4c 12 54 b2 5c f0 c0 bf
       0.6071406041134609 -0.13233526904527293
000380 70 0d 2a 55 95 3b b7 bf 85 d6 44 b8 05 e0 b3 bf
       -0.09075291947561026 -0.07763705967667008
000390 34 98 da 76 5a ce c5 3f 6f 8f 77 ea 69 2b c8 bf
       0.17035990527546263 -0.18882488201699796
0003a0 4c d1 29 b9 1d 82 c4 3f 92 56 79 52 cd 51 d7 3f
       0.16022082844905083 0.3643678002748426
0003b0 47 01 9e 9c b5 78 d0 3f 31 3f 86 ec 00 3d b9 bf
       0.2573675183739578 -0.0985870912029412
0003c0 1b 3c 16 53 23 29 9d bf 23 6b ce 58 0b 6e d8 bf
       -0.02847724146482387 -0.3817165724992028
0003d0 a2 1d f5 7d 91 76 b5 3f d0 cb 2f 51 db 32 cf 3f
       0.08384045910962937 0.24373952354616657
0003e0 57 7f f5 0d ea 63 96 3f 32 85 8c c0 0a 84 d7 bf
       0.021865517713535478 -0.3674342041359352
0003f0 8b d4 e7 2f 1e bc bd bf 4d db bc 27 31 f7 99 bf
       -0.1161517016369819 -0.02535702519454768
000400 c4 51 f7 f6 33 d2 d0 3f a9 12 e7 02 1b 12 b2 bf
       0.26282977216513026 -0.0705887682043548
000410 d5 4f 90 6c ac 8f cf 3f 8a 9c 50 cb 19 fc aa 3f
       0.24657206822359848 0.05270462614890288
000420 63 3d 1a e7 3a ba c0 3f 88 0a aa 79 9a 39 d0 bf
       0.13068329128553122 -0.2535158336760692
000430 9e 4f 1c 33 cb a0 bd 3f 05 45 99 22 ad 34 9b 3f
       0.11573476789300094 0.02656813167260898
000440 57 39 cd 11 4c 28 c6 bf 69 58 d8 da a9 1b b3 bf
       -0.173104771320548 -0.07464086144349981
000450 45 d0 63 27 10 3f ae 3f fa 59 af 6f 11 8b cb bf
       0.05907488327821445 -0.21518152192466272
000460 eb f1 be 77 00 9e b5 3f 9b 63 49 91 52 d0 a8 3f
       0.08444216655238505 0.04846437476653095
000470 07 eb a8 60 c3 ff a0 bf 8c 00 50 7e 9e c5 d0 bf
       -0.03320131831102029 -0.2620617135544385
000480 0f b3 a4 f0 1f d1 a9 3f 3d 65 39 82 6f 62 c8 bf
       0.050423620343599145 -0.19050401552775922
000490 96 27 66 b1 c4 52 b7 bf 98 9a 0b a6 72 b9 d0 3f
       -0.091106694517434 0.26131883826602964
0004a0 48 c6 7b 65 8b 1a b2 3f e8 bd e9 65 1c dc b6 bf
       0.07071753718971607 -0.08929612625228567
0004b0 7c b1 05 86 60 cc bc bf d9 18 db fc ee c4 ad bf
       -0.11249354621913271 -0.05814310871714818
0004c0 a9 a4 b2 50 8b ed b2 bf 2f 0b f6 81 60 77 bb bf
       -0.07393713684236282 -0.1072902982032644
0004d0 58 28 06 ce 74 bb 72 bf 05 de 4e e7 75 2b ca 3f
       -0.004573303478887146 0.20445131105746853
0004e0 f6 76 e0 5d 75 b9 cd bf 91 72 e6 3e 2d 97 d0 bf
       -0.23222224315480106 -0.2592270960101724
0004f0 a4 47 6a a3 f4 bf 9f 3f be 35 89 a0 85 1a d6 3f
       0.031005690073079642 0.34536877324429927
000500 57 39 25 35 6b f7 ad bf 71 08 9e 4d 54 43 ce bf
       -0.0585282804846538 -0.2364297274580767
000510 80 5a 58 53 35 6f c6 3f
       0.17526880807482215
