lhy-1/weight.npy (npy, 1432 bytes, 1 tensors)

array f8 [163, 1]
21.374026893135486 0.9476617127085567 0.4859520696643603 0.39577460507736634 -1.8090899465504382 -5.897200872656574 5.778139610065912 0.48792338510439676
-1.2447443488917471 0.7454256739429471 -0.2598910623286084 0.014584323277781128 0.12109859044170068 0.08028957489721072 -0.04130998503689091 -0.006834797823970416
-0.11216897926528716 0.11210788495962708 0.5222425357546161 0.0880055179780866 -0.03905423899723635 0.06535149143456707 -0.13780155303669686 0.14799123456265442
-0.08226860983203546 -0.1263811284142496 0.10555616809758357 0.4065627849970408 -0.15363310510623895 0.13021902953997377 -0.14141558482584488 0.23775435686877422
0.27977863611834514 -0.34945642940559063 -0.0030868426503830267 0.10927689308401109 0.17324136399580944 0.06326711847730311 -0.03396807811697613 0.3267932901409476
-0.033469975877609644 -0.07035158576422074 -0.18171818029455833 0.2062191437423087 0.25774369354099075 -0.44254952992148316 0.13177812827973018 -0.35767222348162814
-0.16163264627825905 -0.25822854908573056 -0.011716116603764164 -0.04239927540017453 -0.4042340245874688 -0.30321246892100606 1.0242647202618886 0.10633674856016995
-0.20698094960251306 0.04144810528677809 0.051481221693172 0.04014234722528843 0.040172606805030334 -0.2329907989313503 -0.051776536239176586 0.9617239618860681
0.06509060403228513 0.25255002265886006 -0.3206349067457638 -0.2928586328384892 0.0343355018825557 -0.6763054582140832 -0.5836014743969116 -0.1157691285629389
2.0258289358189874 -0.2570235161399412 0.2832021984907322 0.15693583481031892 0.02034643645321628 -0.27900198901774015 0.32107630657689396 -0.04806977881765469
-0.2896034307789505 1.6247077136055053 -0.004885861994486479 0.30530698347047047 0.5074123372627797 -0.7841308124547488 0.8047257467493634 2.9876947258724815
-5.458472274515371 1.5420277350548133 13.53689613341083 0.07663964609626968 0.0075303854611162 -0.11091683334451792 -0.0055888488311074125 -0.12103087494106642
0.1724355506975252 -0.00017919139161067551 -0.0655794917923476 -0.18904553901382692 0.304808242718397 0.586368918586914 -0.09385790321696268 -1.1650690664678955
-1.535048408811271 1.2996727248568853 -0.03945929043869478 -0.055972638422417495 0.30180683534394154 -0.5001045787042634 0.6091238008307625 -0.197335042003975
-0.025626345710522934 -0.05357277410988017 0.12905994852883002 -0.22966707480588971 0.19151566576382043 0.37899029596262407 0.27176304217290514 -0.047230585676140156
-0.04478843976327804 -0.3540891611028351 0.0043461816290002505 0.25210822731956334 0.04707543951550884 -0.35206224101962785 -0.1236343313813637 -0.017733625630075384
0.2416058891061758 -0.06873201675347429 0.20203859741097294 0.11169866068050402 0.18627121376620348 -0.28581775511635693 0.08243498879143743 0.01145006847607019
-0.15033501939902563 -0.06553401442864586 0.07095928584310476 -0.22186779841957113 0.10576556233828721 0.012200773140517589 -0.04131180293126648 -0.2341193222334533
0.04354467769627485 -0.23460600622455144 -0.12106552506837423 0.24211254601261345 0.0714344980354858 0.049374314660399016 -0.08083019717401593 -0.1056860542370931
-0.10258984389420879 -0.13316229708751698 0.018638994615939628 0.24300828087457516 -0.23954463870765177 -0.23620769182038115 -0.06878358535209918 0.3004798877689893
0.004123822591050781 -0.26130369910200363 0.21964472916002067
00000000: 66d7 f939 c05f 3540 ac25 f8a7 3e53 ee3f
00000010: b971 a8b5 d619 df3f 3141 5902 5f54 d93f
00000020: e84d bf4c 08f2 fcbf b602 58d3 bb96 17c0
00000030: 36d2 43a1 d01c 1740 2187 7e01 233a df3f
00000040: 13ef e50c 79ea f3bf 03e1 65f1 86da e73f
00000050: 2d57 4e1f 0ea2 d0bf f850 19bc 62de 8d3f
00000060: f8ee 8935 5100 bf3f dcac 648a db8d b43f
00000070: d5a0 7615 9526 a5bf d841 0f12 cefe 7bbf
00000080: c2f2 9131 1bb7 bcbf ef7b 8633 1ab3 bc3f
00000090: 90ad 74fa 35b6 e03f 255b 9595 8787 b63f
000000a0: fdce 86ce eafe a3bf 67cf 7416 e0ba b03f
000000b0: 3db8 d035 7ba3 c1bf 3148 4574 60f1 c23f
000000c0: 3a4a b73c 8e0f b5bf aa75 afbe 412d c0bf
000000d0: 6dc5 dea1 ba05 bb3f 604f 55ea 1f05 da3f
000000e0: 30d2 01e5 3faa c3bf 2c74 9864 04ab c03f
000000f0: 3e61 fce7 e719 c2bf 9ccf 9d19 bc6e ce3f
00000100: 93db 0fa7 e4e7 d13f e821 eb7f 7e5d d6bf
00000110: b5c0 6607 9449 69bf de1a 010a 92f9 bb3f
00000120: 5f95 56e4 c52c c63f 35ad c51c 4632 b03f
00000130: 33a3 3d91 4364 a1bf 7849 6d67 2eea d43f
00000140: c9a0 9507 fa22 a1bf c03d 14c0 8f02 b2bf
00000150: cc14 ba94 8a42 c7bf e256 178f 6365 ca3f
00000160: 3590 a067 df7e d03f 4fde 7743 bb52 dcbf
00000170: 720f a50f 1bde c03f f5a2 a209 1ae4 d6bf
00000180: 5593 dde8 60b0 c4bf 20df 4d09 d186 d0bf
00000190: c9be 318d 9efe 87bf a289 6f9a 5bb5 a5bf
000001a0: 2227 e262 f8de d9bf 2c54 7045 d567 d3bf
000001b0: db8a 3f67 6363 f03f b8cc 6d99 e238 bb3f
000001c0: 6a0a b80c 5a7e cabf 5d31 60a1 af38 a53f
000001d0: 6a83 0f27 bf5b aa3f 41da 08a9 898d a43f
000001e0: 8268 d800 8191 a43f 7beb d67a a4d2 cdbf
000001f0: 55e1 b143 7482 aabf 1b91 8254 71c6 ee3f
00000200: fd75 981f c7a9 b03f 9220 fb91 c729 d03f
00000210: ce75 9b45 4885 d4bf 1320 9922 32be d2bf
00000220: 1aca 5a43 6c94 a13f 5358 2458 4ba4 e5bf
00000230: e6d3 cdff dcac e2bf 2b72 10ad 0ba3 bdbf
00000240: 7410 15cd e534 0040 37ef 07c3 1273 d0bf
00000250: 5b12 2b1d fc1f d23f f056 0a33 7916 c43f
00000260: 9477 a03c b2d5 943f c768 9628 2bdb d1bf
00000270: ab2a 11a3 838c d43f 7a43 e51f 9a9c a8bf
00000280: cb51 00d4 dc88 d2bf cce9 f783 cdfe f93f
00000290: fa58 aa97 3203 74bf d4bf 4f4d 268a d33f
000002a0: 8e2d 44cc b83c e03f 06ee 6880 9917 e9bf
000002b0: ca34 9135 50c0 e93f 946e 107e cce6 0740
000002c0: 3eaa 84c1 79d5 15c0 b35d 3946 25ac f83f
000002d0: 5db2 cc0c e412 2b40 6d7c 8fe5 a79e b33f
000002e0: 1e1f 8274 2ed8 7e3f e563 caab 0b65 bcbf
000002f0: 60f5 3a2f 55e4 76bf fd9a ad21 e1fb bebf
00000300: 86f1 743d 5e12 c63f d8ba 5855 aa7c 27bf
00000310: b253 894c d1c9 b0bf 2c71 c2eb a432 c8bf
00000320: 32b6 816e fa81 d33f 0518 17c0 88c3 e23f
00000330: 93b9 c950 1207 b8bf 4af9 2076 1fa4 f2bf
00000340: a1f0 99eb 8e8f f8bf 6a37 8ca0 75cb f43f
00000350: 4045 ea13 0234 a4bf de7f fd16 72a8 acbf
00000360: 2fbc e09d cd50 d33f 5fab 4351 db00 e0bf
00000370: 2411 7932 f17d e33f 9884 e14f 4642 c9bf
00000380: a682 f8f2 ca3d 9abf 830f 8401 e46d abbf
00000390: 72cf 1351 0985 c03f 2630 a10f bb65 cdbf
000003a0: 914a 90d8 9583 c83f 0f4b aa83 6041 d83f
000003b0: e038 99d0 9064 d13f 632c b379 9b2e a8bf
000003c0: 9c56 0ba8 82ee a6bf 0f81 b395 65a9 d6bf
000003d0: 0632 583f 4dcd 713f b7f6 d88b 8a22 d03f
000003e0: 7eef 53a2 451a a83f 477d d510 3088 d6bf
000003f0: e01e f2e1 7fa6 bfbf d893 7b78 c328 92bf
00000400: 16b3 1d18 f1ec ce3f 98f0 24e4 6b98 b1bf
00000410: 9b75 3498 66dc c93f 5638 a18e 4898 bc3f
00000420: e0f1 a731 bcd7 c73f 23d1 b58d d64a d2bf
00000430: 0ac5 e79c 751a b53f 2f2a 222d 2273 873f
00000440: 6194 e18b 2d3e c3bf e322 bf50 d6c6 b0bf
00000450: b22c 0b44 632a b23f a7b0 1ffd 2966 ccbf
00000460: d436 49af 7313 bb3f 7cd9 fe0c b8fc 883f
00000470: e3a2 0e15 d226 a5bf eb5b 2d38 9ff7 cdbf
00000480: f89f 3ded 7c4b a63f d1fd 16d2 9107 cebf
00000490: fa7b d776 26fe bebf 00a9 893d 8bfd ce3f
000004a0: c45b de00 8849 b23f d428 7515 9747 a93f
000004b0: de41 64ad 49b1 b4bf e872 97c2 3d0e bbbf
000004c0: 4168 6df8 5343 babf 268b 864f 760b c1bf
000004d0: 991e 39c1 1916 933f ccb9 8135 e51a cf3f
000004e0: 653b 9712 66a9 cebf cc51 b7bb 0d3c cebf
000004f0: 89c1 9611 cd9b b1bf 33b5 c4fe 0f3b d33f
00000500: 55ee 9b32 24e4 703f 2fe2 7d26 33b9 d0bf
00000510: 9593 3d88 511d cc3f
